…
otterrebbero risultati ancora migliori ma la fase di training richiederebbe un tempo molto più lungo a causa del numero
di parametri della rete.

Una volta terminata la fase di training l'architettura della CNN, ed i suoi pesi, vengono salvate nel file "cats_dogs_cnn_model.h5"
in modo da poter essere utilizzata successivamente dall'applicazione per la classificazione.

Di seguito l'architettura della rete:

┏━━━━━━━━━━━━━━━━━━━━━━━━━━━━━━━━━┳━━━━━━━━━━━━━━━━━━━━━━━━┳━━━━━━━━━━━━━━━┓
┃ Layer (type)                    ┃ Output Shape           ┃       Param # ┃
┡━━━━━━━━━━━━━━━━━━━━━━━━━━━━━━━━━╇━━━━━━━━━━━━━━━━━━━━━━━━╇━━━━━━━━━━━━━━━┩
│ conv2d (Conv2D)                 │ (None, 158, 158, 32)   │           896 │
├─────────────────────────────────┼────────────────────────┼───────────────┤
│ max_pooling2d (MaxPooling2D)    │ (None, 79, 79, 32)     │             0 │
├─────────────────────────────────┼────────────────────────┼───────────────┤
│ conv2d_1 (Conv2D)               │ (None, 77, 77, 64)     │        18,496 │
├─────────────────────────────────┼────────────────────────┼───────────────┤
│ max_pooling2d_1 (MaxPooling2D)  │ (None, 38, 38, 64)     │             0 │
├─────────────────────────────────┼────────────────────────┼───────────────┤
│ conv2d_2 (Conv2D)               │ (None, 36, 36, 128)    │        73,856 │
├─────────────────────────────────┼────────────────────────┼───────────────┤
│ max_pooling2d_2 (MaxPooling2D)  │ (None, 18, 18, 128)    │             0 │
├─────────────────────────────────┼────────────────────────┼───────────────┤
│ conv2d_3 (Conv2D)               │ (None, 16, 16, 128)    │       147,584 │
├─────────────────────────────────┼────────────────────────┼───────────────┤
│ max_pooling2d_3 (MaxPooling2D)  │ (None, 8, 8, 128)      │             0 │
├─────────────────────────────────┼────────────────────────┼───────────────┤
│ flatten (Flatten)               │ (None, 8192)           │             0 │
├─────────────────────────────────┼────────────────────────┼───────────────┤
│ dense (Dense)                   │ (None, 512)            │     4,194,816 │
├─────────────────────────────────┼────────────────────────┼───────────────┤
│ dense_1 (Dense)                 │ (None, 1)              │           513 │
└─────────────────────────────────┴────────────────────────┴───────────────┘

I parametri utilizzati nella fase di training della CNN sono: 

optimizer = Adam (backpropagation)
learning rate = 0.0001
loss = binary_crossentropy
metric = accuracy
batch size = 32 (default)
epoch = 9

2) UI per per eseguire la classificazione binaria cane/gatto

La UI (file "cats_vs_dogs_classifier.py") è stata realizzata utilizzando tkinter e customtkinter, questa presenta una interfaccia 
…
